results/arkanoid_01/Arkanoid/Arkanoid-38400.onnx (onnx, 73846 bytes, 6 tensors)

network_body._body_endoder.seq_layers.0.weight f4 [128, 7]
00000000: 9136 d1be a8db 02bf 2759 4e3e dcdf 3f3e
00000010: 3f42 003e bf8b e0be aa8e 86bd 6d9b e6bc
00000020: 1980 6b3c a7f0 0fbf 31af eb3e a31d a13e
00000030: cc20 a83e 8812 e03e e340 fe3d ef6d 893e
00000040: 6229 8fbe cd79 85be 5bd1 f93d f08a 2b3e
00000050: f4d0 683e e9fa 973d 7a2d 61be 7878 4f3d
00000060: 1cdb 5fbe 30fb c0be 7949 153e 64f2 1bbe
00000070: a1d6 0d3e 15a8 6ebe 1526 253f 2829 61bf
00000080: 754e bc3d e1c7 83bd 905b 8c3d e8d9 c23d
00000090: bb62 f4bd b8f5 863e 67c3 2b3e 0621 083f
000000a0: e137 bebe 4759 b73e d87c 83bd edea 833e
000000b0: 598d 0d3f d198 a23e 31c3 a83e 316f 543f
000000c0: 6849 823c 839e c23e b9ba 22be 96e2 9d3e
000000d0: 6ab1 c03e f7b5 1fbf 5d69 aa3e 75cd 97be
000000e0: 1660 9e3c 6beb c7bd 8038 64bc 52db d13e
000000f0: 3735 d63b d9ea 2cbe 35ab 733e f398 153f
00000100: a8f2 c8be 5094 aabe fa9d 3f3f 587a 02bf
00000110: 7386 5d3e ecad be3e 4508 0c3e 1ae5 0e3f
00000120: e47f 293e bdc9 0abe 4086 f6be 8c55 2ebf
00000130: 2f98 5b3e eb63 c03d 09ee 0e3d 5e73 3e3d
00000140: 8365 e1bc a438 ee3d 179a 133f da72 913e
00000150: b9ae 8c3e aa57 59be d993 c3bd d1f3 e0be
00000160: 7927 f0bd a849 07bf ceed 803e a5fe b93c
00000170: 9b40 c5bd 730b 8fbf 0607 073d 3ae9 acbe
00000180: 93ea 043d 0f5a 12bf 1a14 dc3e cf34 9fbe
00000190: e3e6 6e3e 4b5e 7abe db03 adbe a3cd c1bd
000001a0: b558 02bf a3db c6be 2b6f c83e fe43 23bf
000001b0: 72b7 f83e 2ab2 873e 9741 2f3e 2422 243e
000001c0: c0a3 f3be d25b e63d 72e7 07be a708 36be
000001d0: 4d5a dfbd c405 40bf 5b8d f3be 746e 63bc
000001e0: 9381 febd 2345 9abe 9022 24bf e75a ba3e
000001f0: 9ba7 643e 8ea8 adbe 1673 64be 20e7 283d
00000200: b958 c6bd 5257 8b3f b83e bc3b ca78 62be
00000210: 3d77 423f a26a 8fbd 5c10 d3be d539 a03e
00000220: bdd3 033b c120 a0be 95eb 243d e5c5 babd
00000230: 1080 503f 8fad 25bf 9428 b03b 03ee b43e
00000240: f52c 363d a83e ee3e a017 153e 99a6 553e
00000250: bddf bcbd 73ae 9fbe 0b26 4a3d f97f 84be
00000260: 6622 883e 0af1 42be aa8a 13bf 5f7d ea3e
00000270: 9e96 b5be f356 853e f0c8 443e 037a 183f
00000280: 580a a8bc 4ef4 093f 1cad 893e 9846 08bf
00000290: 3518 4f3f 0635 cdbe b668 b7be c3da 0d3c
000002a0: b799 993e a9e9 b53e 8e49 4e3d 54ec 6cbf
000002b0: 169d 753b d1de c43e f388 c7be 3cf1 b5be
000002c0: f224 1dbf a0d1 dbbe ada9 003e be11 e8be
000002d0: 9ab1 cf3e fe19 8d3c b0ff fd3d f3cf 8cbd
000002e0: a703 37bf 24c9 a23e 1e58 ecbe 0931 36be
000002f0: 8670 6fbc bdaf a3be bd0d 033f 92d2 863e
00000300: 80b4 783e 0d61 0c3f 7316 ff3d ac69 d13d
00000310: 430c d83e ea01 a9be 9cce 41be 7b8b 253e
00000320: 484f a93e fa2e 263f 61c3 3f3f e167 693e
00000330: 8b14 9ebe e185 0c3f 7c45 87be edf4 77be
00000340: efb1 be3e 511f bd3e 1d28 173e c741 253f
00000350: fd5b c13e ade1 d63e 3535 98be ecc0 763e
00000360: 5342 acbe cb93 943e 2302 843f 4652 b0bd
00000370: bd15 a6be 4dc9 053d 6098 76be 348d 3cbe
00000380: 0fbe 193e 34b1 4a3e c9a5 06be bbf4 253e
00000390: 7007 233e 072c 023f f786 1a3e 4837 9b3e
000003a0: 1f25 873f 07cc 7abe 854b a0be 824b 873e
000003b0: 1006 693f 825f a2be 9586 63bd 6ffa a3be
000003c0: f647 03bf b617 163f 7ffa 693e ad47 0e3f
000003d0: 80b2 01bf b08d dcbd 511c a5be 4cc2 d2bd
000003e0: 27c6 893e 2024 8a3d efe5 dbbe d97f 073e
000003f0: f50a e23d ecd9 8fbe b48c 9ebc 7349 c2bd
-0.40861943 -0.5111642 0.20151196 0.1873774 0.12525271 -0.43856618 -0.0657018 -0.028150285
0.014373803 -0.5622658 0.46032098 0.31467924 0.32837522 0.43764138 0.1241472 0.26841685
-0.2796126 -0.2606949 0.121981345 0.16752219 0.2273596 0.07420904 -0.21990004 0.050651997
-0.21860927 -0.3769164 0.14578809 -0.15229183 0.13851406 -0.23306306 0.64511234 -0.87953424
0.09194652 -0.06434608 0.06853402 0.095142186 -0.11932894 0.26359344 0.16773759 0.5317539
-0.37152007 0.358103 -0.064202964 0.25765172 0.55293804 0.31757215 0.3296142 0.82982165
0.015904143 0.3801156 -0.15891542 0.30836934 0.37635356 -0.6238703 0.3328351 -0.2964894
0.019332927 -0.09761699 -0.013929486 0.4098764 0.0065371054 -0.16886462 0.23795779 0.58436507
-0.39247632 -0.33316278 0.7485043 -0.5096793 0.2163332 0.37242067 0.1367503 0.5581833
0.16552693 -0.1355352 -0.481493 -0.68099284 0.21444772 0.09394058 0.034894977 0.04649674
-0.027514225 0.11631897 0.57657 0.28407937 0.27477053 -0.21224847 -0.09549684 -0.43936017
-0.11726279 -0.52846766 0.2518143 0.022704432 -0.09631463 -1.1175369 0.032965682 -0.33771688
0.03245027 -0.5716867 0.42984086 -0.31094977 0.23330264 -0.24450032 -0.33792004 -0.0946305
-0.50916606 -0.38839445 0.39147314 -0.6377562 0.48577458 0.26503116 0.17114864 0.16028649
-0.4758587 0.11247982 -0.13271883 -0.17776738 -0.109058954 -0.750088 -0.47568783 -0.013881315
-0.12427058 -0.30130872 -0.6411524 0.36397478 0.22329561 -0.3391766 -0.22309527 0.041236043
-0.09684891 1.0886023 0.0057447813 -0.2211639 0.75963193 -0.070027605 -0.4122342 0.31294122
0.002011522 -0.3127499 0.04026373 -0.09119777 0.8144541 -0.64717954 0.005375931 0.3533784
0.044476468 0.46532178 0.14559793 0.20864333 -0.09222362 -0.31187782 0.049352687 -0.25878885
0.26588744 -0.19037262 -0.5763346 0.45798776 -0.35466474 0.260429 0.19217277 0.59561175
-0.020512745 0.53888404 0.26889884 -0.5323272 0.8089631 -0.40079516 -0.35822076 0.008658114
0.30000088 0.3552983 0.050363116 -0.9254811 0.0037477664 0.38451245 -0.3897167 -0.3553561
-0.613845 -0.4293337 0.12564726 -0.45326036 0.40565187 0.017224308 0.12402284 -0.06875601
-0.7148995 0.31794083 -0.46160978 -0.17792143 -0.01461423 -0.31970015 0.5119284 0.26332527
0.24287605 0.5483559 0.12455454 0.102252334 0.42196855 -0.33009273 -0.18926471 0.16166489
0.330683 0.6491543 0.749075 0.22793533 -0.30875048 0.54891783 -0.264202 -0.24214526
0.37245128 0.36937955 0.14761396 0.64553493 0.37765494 0.41969052 -0.29728094 0.24097031
-0.3364435 0.29019007 1.0313152 -0.086094424 -0.3243846 0.03266268 -0.24081564 -0.1841324
0.15013908 0.1979416 -0.1314918 0.16206639 0.15920806 0.5084843 0.15090548 0.30315614
1.0558203 -0.24491893 -0.31307617 0.26424795 0.91024876 -0.31713492 -0.05554827 -0.32027003
-0.5128168 0.5862993 0.22849463 0.5557812 -0.50662994 -0.10769212 -0.32248166 -0.102909654
0.2690899 0.067451715 -0.42948863 0.13232364 0.11037246 -0.2809595 -0.019354202 -0.094866656

network_body._body_endoder.seq_layers.0.bias f4 [128]
00000000: e31f 503b 86ae bebb e371 e7b9 f8e0 f0bb
00000010: 1be3 d1bb 67c3 93bb 7004 ecbb 72b1 41bc
00000020: 7eb5 f3bb 8532 53bc aef0 07bb 078a a9bb
00000030: 3e92 29bc f0d5 413b 9a88 1f3b c4ff f8ba
00000040: eba3 14bc 99cf c5b9 d69e 44bc f7a6 c13a
00000050: bc6d 9339 5d9a 9f3b 7578 acbb d4b1 47bc
00000060: 7e96 21bb 091a 21bc 44dd 40bb b580 0bba
00000070: 74f9 26bc 898a 8dbb 5d06 b5bb 067c 033c
00000080: c453 193b f6bd 39bb 46d0 073b cee5 b83b
00000090: 9d09 b2bb c3c5 1e3b 3dbd 84bb f68a 63bb
000000a0: 8862 2fbc a557 56b9 3b51 f1bb 19c1 43bb
000000b0: fba3 2c3b 2b44 f8b9 75a0 b6bb c85e 24bc
000000c0: 93a9 3dbb c28f b9b9 4ded 1cbc 0509 60bb
000000d0: cb0a 553b 8abf 27bc 8ba1 e83b 1de3 41bc
000000e0: 749e c6bb 238a 033c 9cab 07bb 7a49 71bb
000000f0: ca16 5bb9 be8f b23b edcc 413c 5142 90bc
00000100: 2289 9dba c522 b0bb f08a ddbb f4b8 67bc
00000110: c3f3 4c39 f12a b83a 912f 97bc 429f 4dbc
00000120: c44c 2e3c 2ed1 3cbc 8754 6e3b 6b89 9cbb
00000130: c492 abba b075 4b3b b9e4 18bc 0534 2d3b
00000140: 6a52 9c3c ef36 b33c edf3 2fbb 64db 24bc
00000150: 3ef6 013a 6c9e 203c 260a c1bb c674 b13c
00000160: b50c 18bb e59e 14bc 4b2a a0ba 5206 66bc
00000170: 36f0 56bc f39c 623b c4fa c8ba 0d7a 19bb
00000180: 6e00 7b3c a43d 803b 34b9 9b3b c1fc e8bb
00000190: c2b7 cc3b a521 883c 76c3 0ebc a821 f8bb
000001a0: 7a6e b53b ad9c f7bb d729 81b9 8f9e 39bc
000001b0: 5688 ecbb 0f6b 9dbb 1dfd 783b 5a5c 893a
000001c0: 02b1 843b a3fe 80bc 74ca 593b d83d 0cbc
000001d0: b463 823a b996 6ebc 6c33 a6bb 16ed 09bc
000001e0: fded 3639 cfb3 273c c6c9 30bc e333 09bc
000001f0: 5a64 17bc 18b3 fabb 0179 a6ba 14bf 2d3c
0.0031757287 -0.0058191447 -0.00044144606 -0.007351037 -0.006405247 -0.0045093778 -0.0072026774 -0.011822091
-0.007437407 -0.012890463 -0.0020742822 -0.005173925 -0.010349808 0.002957698 0.0024342895 -0.0018997123
-0.009072284 -0.0003772944 -0.01200076 0.0014774491 0.00028119783 0.0048706965 -0.005263383 -0.012188394
-0.002465635 -0.009832867 -0.002942876 -0.0005321608 -0.01019131 -0.004319493 -0.00552444 0.008025175
0.0023395875 -0.0028341985 0.0020723506 0.005642629 -0.005433275 0.0024226762 -0.0040508793 -0.0034720278
-0.010704644 -0.0002044128 -0.0073644198 -0.0029869734 0.0026342857 -0.00047353035 -0.005573327 -0.010032363
-0.0028940185 -0.00035393058 -0.009578061 -0.0034185064 0.0032507654 -0.010238538 0.0070993355 -0.011833933
-0.0060613696 0.00802854 -0.0020701652 -0.0036817477 -0.00020893957 0.0054492643 0.011828643 -0.017609747
-0.0012019018 -0.0053752386 -0.0067609474 -0.014143217 0.00019545764 0.0014050883 -0.018455299 -0.012550177
0.01063842 -0.011524482 0.00363663 -0.0047771237 -0.0013090004 0.003104549 -0.0093318755 0.002642871
0.019082267 0.02187678 -0.0026848272 -0.010062072 0.00049576524 0.009803396 -0.0058911024 0.021662127
-0.0023200933 -0.0090710865 -0.0012219636 -0.014039593 -0.013118794 0.0034578412 -0.0015333523 -0.0023418695
0.015319927 0.003913598 0.0047523025 -0.0071102087 0.0062474916 0.016617605 -0.008713594 -0.0075723715
0.0055368515 -0.007556519 -0.0002463597 -0.011329307 -0.007218401 -0.004804022 0.0037992664 0.0010479793
0.0040494213 -0.01574642 0.0033232244 -0.008559667 0.0009947927 -0.014562302 -0.005072048 -0.008418342
0.0001744553 0.010235741 -0.010790294 -0.008374187 -0.009240234 -0.007650744 -0.0012700857 0.010604639

network_body._body_endoder.seq_layers.2.weight f4 [128, 128]
00000000: b380 43bd 4f4b 56bd 1097 b5bc 63a6 24bd
00000010: 34ad f6bd 79d8 643d 3044 833d fcc8 d63d
00000020: 49c9 08be eb27 86bc 8cb4 49bc 6168 10bd
00000030: 7acd aebc dcbb 6f3d b0b0 833d 73d1 0bbb
00000040: a230 febd 3b62 cc3d 9175 293e 67e1 d3bc
00000050: b8f0 84bc 5c85 68bd 99e9 12bd d7a3 deba
00000060: 7f24 553d 9b3d 0fbd 1f16 90bc b0ea bc3d
00000070: 4f15 213e 1ca6 e43d 87ed e53c 942e 6dbc
00000080: 6dab 1fbe 61e0 013d 7bb9 22bd ca59 a53d
00000090: 2f40 543d e3be ab3c b8db a1bd 8643 aabb
000000a0: 6b4d c43d 78e2 d63d 3c9d 743d 7557 653d
000000b0: 5e1e 97bd 4581 95bc 2a7d a7bd f607 763d
000000c0: 7bd7 6d3d 6fd5 c43c 0a7a 5e3d 8cd1 413d
000000d0: 4fc1 adbc 059c 433d ff7e 34bd 2e49 0a3e
000000e0: 600f 4e3d 00fe 21be 007e 1b3d 2771 813c
000000f0: 2268 083d d521 75bd 2976 be3d 8e49 95bc
00000100: e14e 8cbd 60f8 8ebe 3b49 963d 800d e43d
00000110: 80b8 05be 1e1f 46bd d5af ccbb 25f0 1e3d
00000120: aa56 c5bd 618d b33d e12b c73b af08 a23c
00000130: b645 9cbd 2e7c fcbc b363 d53b 589e 873c
00000140: fd67 0dbc aa7a b33c d566 27bd 9bf8 bc3d
00000150: ff90 5fbd c8fe 273d 6bfa ecbd bfb0 7b3d
00000160: 87c6 8a3d 97d4 673d dd5b 09bd d427 653a
00000170: 8b1c af3d 4c86 ac3d b3ba 573d 1590 b8bc
00000180: afbd 8bbd 11ae 0fbd 94c5 35be 9074 873c
00000190: b873 4f3d 2b18 c3bd 3e41 0b3e aa18 563c
000001a0: a21e 0abd 834e e13b 50c2 823c 6f32 12bd
000001b0: 2f6d ab3b ecb7 b43d 2f76 6e3d 3fbf e43c
000001c0: 2713 613d 778c 2a3c 9552 813d ad7a b4bb
000001d0: 3250 babb 6de6 e7bc ede5 b9bd a46c dcbd
000001e0: d9b2 5fbd 17b0 a53d ff61 853d 13d5 113d
000001f0: fee5 2bbe 9685 01bd c992 37bd 4f2d b1bd
00000200: e730 8cbc 7aa6 2b3d d9a1 6c3d 68f9 bc3d
00000210: cdb8 913d 2647 583e 760a 9c3b e6cd d8bd
00000220: bd31 183d 6846 f53d 547a a2bc 3384 ffbd
00000230: 7905 6a3d 5b61 9ebd 4b77 d5bd 7f86 0abd
00000240: 53b0 bbbb d57f 363d 1bd3 c0bb 8df2 803d
00000250: cc77 ddbc 6d98 44be 7545 f3bc c603 9f3d
00000260: 5d04 bfbb 0099 10bc 8dd8 c3bb ec99 3b3b
00000270: cece 893d c076 31bd 9a67 ab3d 7f89 513c
00000280: ffcd e33d 74bc b1bd 29e2 ce3d e52e bdbb
00000290: 147e ed3d 539d 7dbd b895 81bc 0763 493c
000002a0: fba5 fc3c 089d fc3d 40aa 9dbb a60b 82bc
000002b0: 8cfe 20bd ef56 8e3c 29fc 47bd 5eb8 78bd
000002c0: b540 93bd f0de c4bd 5135 673d 1b0a f6bd
000002d0: f998 103e a5f1 dc3c 2944 a6bb 82ad 38be
000002e0: 63e8 9cbd 940d 4fbd 6b3e 283d b204 493d
000002f0: 8ecf 8c3d 2153 18bd 8399 753c 8fde 27be
00000300: 7d70 003d fd2b ff3c 2bae 8e3d d0e1 15bd
00000310: ef68 4a3a 77a6 193d bb24 23be 151c 9a3d
00000320: 6f63 323e b9ff e6bc 238c 7fbe e1d3 09be
00000330: e3cc 623e 60e1 d1bd 2ea4 773d da9e 60bd
00000340: c54d 80be 1dc8 14be 3536 07be 78da b03c
00000350: 4b59 d13c 9995 803d a407 b8b9 cddf 76bc
00000360: ec80 e8bd 2dc1 49bd c5e5 9c3c 8b2b f5bd
00000370: 7088 71bd 1c24 7abd b9d5 39bd 7da1 b6bd
00000380: 2e77 2abe a8f5 523e 0747 bfbd 4932 8f3d
00000390: 5999 7abd 3d95 84bd 678e 9bbd 56ae 5abc
000003a0: 5ac1 7c3c 7838 cebd 0ad9 953d 9239 93be
000003b0: 60a0 dd3b ae48 573b 123b 70bd 3dbf c9bc
000003c0: 3bfe 77bd c923 143d af85 83bb e638 a4bd
000003d0: 5d87 5ebd c117 7cbd f42b 543d 3c44 8ebd
000003e0: eb84 253e f3c6 a73d 7627 e03d 1979 5abc
000003f0: 8c27 2c3e b482 64bb 5b3e 94bd c4ee 0a3e
-0.04773016 -0.052317914 -0.022166759 -0.04019774 -0.120447546 0.055870507 0.0640949 0.104875535
-0.13358034 -0.016376456 -0.012311112 -0.035255793 -0.021338213 0.058528766 0.06430185 -0.0021334558
-0.1241162 0.099796735 0.16548754 -0.025864316 -0.016228065 -0.056767806 -0.035867307 -0.0016986084
0.05203676 -0.03497086 -0.017588673 0.092244506 0.15730785 0.11164495 0.028067363 -0.014476437
-0.15592737 0.031708125 -0.03972767 0.080737665 0.051819023 0.020965045 -0.07903236 -0.0051960377
0.09585079 0.10492414 0.059720263 0.05599161 -0.07378839 -0.018250117 -0.0817817 0.060066186
0.058066826 0.024027554 0.054315604 0.04731898 -0.02121034 0.047756214 -0.044066425 0.13504478
0.05030763 -0.1581955 0.03796196 0.015801026 0.033302434 -0.059846718 0.09299881 -0.01822355
-0.068509825 -0.2792387 0.07338186 0.111353874 -0.13058662 -0.04836952 -0.0062465467 0.03880324
-0.096356705 0.087672 0.006078229 0.019779531 -0.07630484 -0.030820932 0.006512129 0.016554996
-0.00863075 0.021909077 -0.040869553 0.09227105 -0.05458164 0.041014463 -0.11571201 0.061447855
0.06776147 0.056599226 -0.033534873 0.00087415916 0.08550366 0.084240526 0.052668285 -0.022529641
-0.06823289 -0.035078112 -0.17751151 0.016535074 0.050647467 -0.09526094 0.13599107 0.013067404
-0.03372062 0.0068758144 0.015961796 -0.03569263 0.0052315216 0.08824143 0.058218177 0.027923224
0.054949906 0.010409466 0.063145794 -0.005507788 -0.0056858296 -0.028308118 -0.09077058 -0.10762909
-0.05461392 0.08090227 0.06512832 0.035603594 -0.16786954 -0.031621538 -0.04481772 -0.0865122
-0.017113162 0.04190681 0.057771537 0.09227258 0.07115326 0.21120891 0.004761989 -0.10586147
0.03715681 0.119763196 -0.019833721 -0.12476387 0.057134125 -0.07733413 -0.10423144 -0.03381967
-0.0057278066 0.044555504 -0.0058845407 0.06296263 -0.027034663 -0.19198771 -0.029696206 0.077643916
-0.0058293776 -0.008825541 -0.0059767426 0.002862568 0.06728898 -0.04332614 0.0836937 0.012789129
0.11123275 -0.08678523 0.101017304 -0.0057734125 0.11596313 -0.061917614 -0.015818462 0.012291676
0.030840864 0.12334639 -0.004811555 -0.015874695 -0.039305255 0.017375438 -0.048824463 -0.0607227
-0.07190076 -0.096128345 0.05644733 -0.12013646 0.14120854 0.026970694 -0.0050740433 -0.18034938
-0.07661512 -0.05055006 0.04107515 0.049076743 0.068755254 -0.037188653 0.014990213 -0.16393493
0.031357277 0.031148905 0.06966814 -0.036592305 0.0007721325 0.03751227 -0.1593198 0.075248875
0.17420743 -0.02819811 -0.24955802 -0.13459732 0.2214847 -0.10248065 0.06045931 -0.054838993
-0.25059333 -0.14529462 -0.13204272 0.021588549 0.025555274 0.062785335 -0.00035100908 -0.015068007
-0.11352715 -0.049256492 0.019152531 -0.11971196 -0.058968008 -0.061069593 -0.045369837 -0.0891752
-0.16647026 0.20601523 -0.09339719 0.06992013 -0.0611814 -0.064737774 -0.075955205 -0.013347229
0.015426958 -0.10069364 0.073167875 -0.2875486 0.006763503 0.0032849717 -0.058650084 -0.024627322
-0.060545187 0.03616694 -0.004013739 -0.08018665 -0.05432831 -0.06154609 0.05179973 -0.069466084
0.16163985 0.081922434 0.109450266 -0.013334536 0.16811961 -0.0034867944 -0.07238456 0.13567644

network_body._body_endoder.seq_layers.2.bias f4 [128]
00000000: d336 16bb 401d 65bb e395 d0bb 3956 bfbb
00000010: cc71 b7bb cbe6 3fbb 6417 31bc 30cf 07bb
00000020: 8052 ab3b 57ef dfbb 2ec2 a8bb 997a 7abb
00000030: 37b8 44bc 747b 04bc 0610 34bc e007 e9bb
00000040: 28ff b0ba 5da4 15bc cae2 c4bb e19e dcbb
00000050: 50fa 78bb 0a52 adbb 3e53 1fbb 331c 83bb
00000060: bafe 0bbc 9fd1 273b 8a7b 02bc bff2 d4bb
00000070: cb44 63ba ccba 0bbc b038 01bb 610f 033b
00000080: 6f4f 16bc 3a84 26bb 1ccf 203b 9f2a f8bb
00000090: b4e9 87bb 0862 a4bb c8a3 25bb c510 c3bb
000000a0: afa4 d6bb 7e46 c4bb 82d7 14bc 9110 08bc
000000b0: 58a1 c5bb 2598 a3bb 6e6b d8bb 3940 72bb
000000c0: 18cf 1d3b e10b 3abb e5c3 94bb 7d36 b9bb
000000d0: 4a3f 6ebb 7531 ddbb 6beb 1dbb b11c 03bc
000000e0: 3129 43bc e693 ba39 5e2f 25bb b84d b13a
000000f0: 5914 4dbb 5b66 93ba 8372 0f3b a798 d0ba
00000100: a86e 0dba 1c50 55bb fbfc 5bbb da15 9dbb
00000110: 2cd5 bbbb 3965 1cbb 98fe d9bb d8cd 99bb
00000120: b021 94bb 2e82 e33a 323c 0ebc f90c b1bb
00000130: 1947 d6bb 18a8 25bb 7e5c b3bb fbfa 96bb
00000140: 8d51 f4ba 448c 5dbc 810a efba 61e7 22ba
00000150: ccb5 afbb a5ff 9dbb 3132 44bb c156 e2b8
00000160: 560f 8bbb da07 dbbb 6764 b5bb aefd 19bc
00000170: 0119 cebb 6343 973b 446c 113b b02b 26bb
00000180: 7eb1 e3bb 6ab6 86bb 4892 f8ba e36d 00bc
00000190: 5c6d 36bb 6e94 d6bb 8eb1 c0bb c387 69bb
000001a0: f7a3 b9ba f55e 04bc 8612 863b 4bb0 eeba
000001b0: c0a2 6fbc ea15 293a d589 10bc e1dd 84b7
000001c0: f67e 19bb 89e0 0bbc bd30 fdba 98e8 c6bb
000001d0: 82ac 51bc 1b07 39ba dc77 14bc e986 68bb
000001e0: 272e 07bc 297c c8ba 61bd efbb 1543 c2bb
000001f0: 5510 aebb 8b9d 96bb 669e e5bb c5a5 23bb
-0.0022920861 -0.0034960061 -0.006365524 -0.005839136 -0.0055982824 -0.002928185 -0.010808799 -0.0020722859
0.0052283406 -0.0068339515 -0.005150101 -0.0038220047 -0.012006811 -0.008086074 -0.010990148 -0.0071115345
-0.0013503777 -0.009133426 -0.0060084807 -0.006732807 -0.0037990995 -0.005289321 -0.002431109 -0.0040011643
-0.008544618 0.0025607122 -0.007964024 -0.006498664 -0.0008669614 -0.008528423 -0.0019717626 0.001999818
-0.009174212 -0.0025408403 0.002453751 -0.00757344 -0.0041477326 -0.005016569 -0.0025274623 -0.005952927
-0.0065503935 -0.0059898486 -0.009084584 -0.008304731 -0.0060311966 -0.0049925023 -0.0066046035 -0.003696455
0.0024079736 -0.0028388428 -0.004539954 -0.0056522475 -0.0036353641 -0.0067502805 -0.002409662 -0.008002446
-0.011911676 0.00035586877 -0.0025205235 0.001352719 -0.0031292646 -0.0011245714 0.0021888323 -0.0015914635
-0.0005395212 -0.003254897 -0.0033567536 -0.0047938647 -0.005732199 -0.0023864044 -0.0066526644 -0.004693728
-0.0045206174 0.0017357522 -0.008681344 -0.005403158 -0.006539237 -0.0025277194 -0.0054736724 -0.004607556
-0.0018640027 -0.013522211 -0.0018237383 -0.0006214288 -0.005362248 -0.004821735 -0.0029937143 -0.00010792679
-0.0042437715 -0.0066842856 -0.0055356505 -0.009398861 -0.006289602 0.0046161874 0.0022189775 -0.002535563
-0.006948649 -0.004111101 -0.0018964494 -0.007838699 -0.002783618 -0.006548456 -0.005880541 -0.0035633899
-0.0014163245 -0.00807928 0.0040915636 -0.0018210498 -0.014626205 0.0006450104 -0.008821924 -1.5838947e-05
-0.0023421622 -0.00853742 -0.0019316893 -0.006070208 -0.012797477 -0.0007058249 -0.00906178 -0.0035480803
-0.00825075 -0.0015295792 -0.007316277 -0.005928407 -0.0053120055 -0.0045964173 -0.007007408 -0.0024970633

action_model._discrete_distribution.branches.0.weight f4 [3, 128]
00000000: 4c20 083c 4e5b 6bbc 4aa4 a03c c2b4 963b
00000010: cb01 34bc 93b1 283c aab9 85bb 9080 e03c
00000020: e554 703b b2c1 00bb 37e3 813c b9de 273c
00000030: f110 b0bb 1722 b23a e43b d2ba f234 7fbb
00000040: c5d6 78bc a53c 7d3b fb04 bf3b 1dcc 91bb
00000050: 9505 86bb bd18 87bb a6b7 1b3c cd77 263b
00000060: cabe 89ba f739 7e3c 8119 a0bb 73bf 0cbc
00000070: 9a6a 493c 9a83 10ba 2b91 a83b 22c2 7a3b
00000080: 3d8d 623b 2c36 883c 61d9 473c 846a ce3b
00000090: 1e7e 563b fab2 f4bb 855a 9e3b f107 b239
000000a0: 4ed9 42bc c5e1 043c d7ef 57bb 2656 7aba
000000b0: d032 3ebb bb3d 7ab9 2b73 d2bb 974f 06bb
000000c0: 6152 663c 672e ac3a 0111 bd3b 9471 6cbb
000000d0: fa7d d33b ff9a a43a 8d61 11bc 35f1 b8ba
000000e0: 83e3 8dbb 2fc3 27bb ae8b e8bb dfa6 813b
000000f0: 6c14 143c 8dd8 873a 1755 2c3c 50f6 883b
00000100: 46f9 a13b 1723 4ebc 3d2e b0ba 2d97 21bc
00000110: 7536 2f3c 9318 503c b5a4 f5bb f395 5f3c
00000120: c198 82bc 28ba 703c db12 f03b 1d34 70bb
00000130: 70a1 b73b 3953 6839 448d bfbb 8740 513c
00000140: 5b6b bcba f510 11bc 4da3 81bb 25df 873c
00000150: 0217 2d3c db76 403b d563 2abc 0a08 9b3a
00000160: 0e64 1f3c 0c00 ea3b 05aa 36bb 69e4 6c3b
00000170: fa37 1dbb a503 46bb 7214 3f39 4bdb deba
00000180: 44b9 b93a ddbb 283c 1a05 9f3b 884c 93bb
00000190: 4d68 f93b dc9b e2ba c119 763b 9e94 0e3c
000001a0: 8c14 0e3b f4d4 caba a994 abbb ea27 e13a
000001b0: 660b ebba 2f55 b33b 189a 0abc 5b08 62bc
000001c0: d5b7 82bb cd44 173a 0e25 52bc d2ad d739
000001d0: 5845 0bba 719d 063c f6ea a03a c21e 00bb
000001e0: 18cf 2abb ef6f 283b 5c8a 063c 5f21 893b
000001f0: 906e 52ba 10fa ac3b c94a b0bb 8dfd a3bb
00000200: 8855 42bc 89e3 2a3c bdee 723c 0424 1b3b
00000210: a243 e03b ea30 933b 7d4e c839 4d00 dcbb
00000220: ec60 58ba 5c16 beb9 f058 ca3b 07cb a1bc
00000230: 7f52 eaba 3b99 05bc 3e57 0bba f7c0 803b
00000240: 410f 25bc c1c2 153c 3729 ba3b 9bd4 063c
00000250: 68ef 39bc e030 fe3b 9257 603c a22d 6d3c
00000260: 4313 033b ce50 bb3b e253 c73b bb81 e4bb
00000270: 7358 2dbb 4d07 3aba 635a de3b 9083 b23b
00000280: 67e1 c83b 49a9 303c b0e5 53bc ca0b 36bb
00000290: 5470 aa3b ed76 833b 7399 24bc f797 33bc
000002a0: 9c8a 863a 95c9 d73b e438 cc3a 9eb7 053a
000002b0: 5af8 32bb da7d b53b 8bf9 b6ba 548d 393b
000002c0: 0a43 5bbb fd33 133c f382 903a ba82 cfbb
000002d0: b487 1ebb 39a7 373b b2bf 52bb 1042 c6ba
000002e0: a853 c0bb f7bd 23bc 4b14 59bb 7b6f 4bbc
000002f0: 2616 e83b dcf9 503c 3951 91bc 8a76 d4bb
00000300: 2e07 38ba 4904 803c 7655 993c 6cf7 ae3b
00000310: 0245 3abb 25d6 82bc 2c4e 1abb e14f e73b
00000320: c112 18bc 2c49 873c 458d 1f3b 7162 2f3a
00000330: 863c ee3a b002 36ba aece 67bb 7d9a beba
00000340: 2e15 c5bc 7add f8ba 1561 383b ee58 18bc
00000350: 7c7b cc3a 7800 c13b 7e92 ad3b ab97 40bc
00000360: 9926 443b 0a49 5c3c 651c d2bb 02a9 8437
00000370: 477d 6bbb 58b3 1abc 3c1e 433c c25a 42bb
00000380: 4cdf f0bb 317f 5abb 7514 9bbb 59fb 78bb
00000390: 5d54 a8bb a1d5 8abb 6b5d 85ba 58ac 3eba
000003a0: c8c0 9c3c a4ef 19b9 6e95 adbb ec1a 17bc
000003b0: 5eca 903b bb21 1dbc 42c4 033b 4685 b43b
000003c0: 0682 223c 9e0c 8a3a a7a5 8d3b b624 b338
000003d0: 2fee b83b 8b28 a6ba 117e 5c3a 0ff7 5fba
000003e0: f4c1 f03a 787c d83b 03b9 77bc 8770 823c
000003f0: 6684 16bc faea f539 1d41 89bb 2e8c 8e3c
0.008308481 -0.01436503 0.01960959 0.0045991847 -0.010986756 0.010296243 -0.004080971 0.027405053
0.0036671695 -0.0019646701 0.015855415 0.010245972 -0.0053731133 0.0013590482 -0.0016039577 -0.003894147
-0.015187924 0.0038640883 0.005829451 -0.004449381 -0.004090021 -0.004122822 0.009504234 0.0025400997
-0.001050913 0.01551675 -0.004885853 -0.008590567 0.012293482 -0.0005512774 0.0051442585 0.0038262685
0.0034569048 0.016627394 0.012197823 0.0062993187 0.003272898 -0.0074676247 0.004832568 0.00033956722
-0.01189263 0.008110468 -0.0032949352 -0.000954958 -0.0029021986 -0.00023864854 -0.0064224205 -0.0020494217
0.014057727 0.0013136388 0.0057698493 -0.003607844 0.0064542266 0.00125584 -0.008873356 -0.0014109971
-0.0043301 -0.0025598516 -0.0070967292 0.00395666 0.009038072 0.001036422 0.010518334 0.0041797534
0.004943046 -0.012581608 -0.0013441514 -0.009862703 0.010694136 0.012701171 -0.0074964412 0.0136465905
-0.01594198 0.014692821 0.0073264665 -0.0036652156 0.0056039616 0.00022156247 -0.0058456976 0.012771732
-0.0014375256 -0.0088541405 -0.0039562345 0.016585896 0.0105645675 0.0029367718 -0.010399778 0.0011827957
0.009728445 0.007141119 -0.0027872336 0.0036146885 -0.0023989663 -0.0030214575 0.00018222796 -0.001700261
0.0014169593 0.010298696 0.004852903 -0.004495207 0.0076113106 -0.0017288881 0.0037551972 0.008702425
0.0021679727 -0.0015474842 -0.0052362275 0.0017178033 -0.0017932474 0.005472801 -0.00845959 -0.013795937
-0.0039891996 0.0005770445 -0.012826217 0.00041137502 -0.0005312762 0.008216248 0.0012277055 -0.0019549583
-0.002606338 0.0025701483 0.008211698 0.0041848863 -0.00080273394 0.005278833 -0.005380009 -0.005004591
-0.011861213 0.010430225 0.014827427 0.002367259 0.006844 0.004491915 0.0003820545 -0.006713903
-0.00082541886 -0.00036256283 0.006175153 -0.019750131 -0.0017877369 -0.008154209 -0.00053154293 0.003929253
-0.010074438 0.009140671 0.0056811827 0.0082294 -0.011348583 0.007757291 0.013692753 0.014476212
0.0020000495 0.00571642 0.0060829977 -0.006973473 -0.0026450425 -0.0007096425 0.0067856773 0.0054478124
0.0061303857 0.010782548 -0.01293318 -0.0027778023 0.005201379 0.00401198 -0.010046351 -0.010961524
0.0010264697 0.0065853097 0.001558092 0.00051009085 -0.0027308674 0.0055386843 -0.0013959868 0.0028312998
-0.0033456706 0.008984563 0.0011025354 -0.0063327225 -0.0024189772 0.0028023256 -0.0032157716 -0.0015125889
-0.0058693476 -0.009994022 -0.0033123668 -0.012416716 0.0070827184 0.012754884 -0.017738925 -0.0064838575
-0.0007020113 0.015627043 0.018717509 0.0053395536 -0.002842248 -0.015971253 -0.002354513 0.007059083
-0.009281815 0.016514383 0.0024345678 0.0006690389 0.0018175996 -0.00069431495 -0.0035370993 -0.0014541891
-0.02405795 -0.0018986904 0.0028134037 -0.009298546 0.0015600766 0.0058899485 0.0052970042 -0.01175491
0.0029930233 0.013445148 -0.0064120763 1.5814327e-05 -0.0035932825 -0.009442173 0.011909064 -0.0029656147
-0.007350838 -0.0033339972 -0.0047326633 -0.0037991612 -0.00513701 -0.0042368923 -0.0010174935 -0.0007273606
0.019134894 -0.0001468049 -0.0052973544 -0.009222727 0.0044186553 -0.0095905615 0.0020105992 0.0055090515
0.009918695 0.0010532325 0.004322726 8.542223e-05 0.005643628 -0.0012676878 0.00084111193 -0.00085435895
0.0018368349 0.0066066347 -0.015119794 0.015922798 -0.00918684 0.00046905113 -0.0041886703 0.017400827

action_model._discrete_distribution.branches.0.bias f4 [3]
00000000: f7f6 b33a 8489 16ba a701 84ba
0.0013730217 -0.00057425373 -0.0010071293
