Assets/Arkanoid.onnx (onnx, 73846 bytes, 6 tensors)

network_body._body_endoder.seq_layers.0.weight f4 [128, 7]
00000000: ca48 99bd cbd9 25be afa0 e53e fb49 a3be
00000010: 77b2 80be 024e 2d3f b8cf b33d d033 1abe
00000020: 02ad 133d c221 d2be 00f0 90be bd43 443e
00000030: 7191 613d 3dee 123f 54f8 ebbd bfdd aa3e
00000040: 019c 92bb eff7 88bd 3dc5 713c 85c3 a3be
00000050: fa7e 873e 5956 b03d 051e 083e f1c6 a1bd
00000060: 5c07 08bf fb63 b3be f115 8abe 8250 22be
00000070: 1ebd 8dbd 9080 623e 9ccc 2b3e 3750 b23f
00000080: 3de1 9dbb 5eb7 9fbe adac 19be daf3 ca3e
00000090: a319 22be ecd3 a1be c51e a13e cb75 873e
000000a0: cf82 0d3f 75f7 2b3e 6718 3f3e e220 713e
000000b0: 60ec d8be c843 863e dfdc acbe 7631 cfbe
000000c0: 5fa2 d6bd bac6 d93e d5d7 a73e 2c02 a7be
000000d0: 6b6b fe3d 0f93 433d dd54 c8be 2cff f1be
000000e0: 8abe 2ebe 78f9 633e 1473 303f e9ed 103f
000000f0: adba f13d 8d2f 0dbe f466 2abe f9cc a33c
00000100: 4989 b8bd 5812 1b3f a382 913e ca86 3d3f
00000110: 9102 133e 4b8e 483f 00de 86bf e8f4 bfbe
00000120: 5b46 d7be 105a 073e c800 e63d 9b18 d43e
00000130: 2c21 01be 18d8 8f3e b29d c13d c6c2 b93e
00000140: ef37 dcbe 7e4d 30bf f05d dcbd 074a 2f3f
00000150: 1645 a73d 7268 82be 0d5d 6cbd a497 f13e
00000160: 67b8 18bf 0898 d3bb 06cc c53d 6485 5f3e
00000170: 1623 21be 26f1 a1bd b504 ad3e 977c 2fbe
00000180: 26b8 813e 2f10 033e a7a7 3c3e b479 bdbd
00000190: c2fa 9bbd c8f9 2cbf e902 1a3f 299c e83d
000001a0: db04 ecbe afea 0c3f 42c2 673e a496 8b3e
000001b0: ad6b 1abf 9a01 7ebe fd16 323d ae48 93bc
000001c0: e95b 81be c402 8cbd 579b 13bf 7bbb 263f
000001d0: 7ba5 3fbe c048 0f3e 87a3 d73d 93d2 adbe
000001e0: 37ab d53d 03df c73e 7aed 12be f091 473f
000001f0: 12da a9be 2f27 023f c2ec 193e 2e0f a83e
00000200: cb62 343f d4ee 80be 7d79 ca3e b326 2d3f
00000210: ab93 a6be adef 863e f8be 17be c8b0 0bbf
00000220: 0b0d e0be c802 f73c 5fae 043e fac2 aa3e
00000230: 5dfa 8bbe 25db 81bd c9cf a4be d4b2 1bbf
00000240: 2870 2b3f 0408 ce3c 6180 b03d 20da 963e
00000250: 6187 00bf f80f 453f 28e3 a43d acee f53d
00000260: ae3a 0f3e 5984 0abf 108f 223e 0426 333e
00000270: 9dc7 77be 1b0c 1d3f ae59 c23e 0d6a 943e
00000280: 2137 da3c bbc5 e8bd 5c48 ba3d 6045 053f
00000290: 427e 423f bb6e ac3e c181 213e 0f7b a03d
000002a0: ae3e 15bf 529b 15bf 4de5 9bbe a99b 10be
000002b0: addc ed3d 8420 a5be ba78 943e ada8 61be
000002c0: 2559 833d b8ea 8abe a2cd 1dbf 69bb ee3e
000002d0: 9488 23bd ab1c bebd e0c6 f63e 83a7 c8bd
000002e0: f658 01bd 4494 acbe b437 e53e e6d9 733e
000002f0: c229 b73c df3a 343f 7bd1 bf3d 4fa2 a1be
00000300: ee79 30bf 67f2 f1be c85f e0bc 632a 08bf
00000310: 8dc5 2ebe 38f0 81be da9f cf3e a60e cf3d
00000320: b5af 823c e09c 1f3e 1986 23be d610 aebe
00000330: 1940 cdbd 3805 423e 3685 27be 4cd9 703d
00000340: e466 553e 3609 833e c1a3 f03e b773 673e
00000350: 2560 923e 2685 ed3e 3cd4 aa3d 2c7a d03e
00000360: 56be 40be c68d 99bd 515c 21bd 06cc 443f
00000370: bee5 77bd 270d 1c3d 9308 203e 3625 af3e
00000380: f9b3 ca3d 9b37 993e d3f2 c8bc 1d6a 22be
00000390: 349b 14bf 0ed4 293c 3631 a53e cb93 8cbe
000003a0: 4c39 ccbd e53a 2d3e a205 813e 7a6b b53d
000003b0: 199f ccbb 5f01 ce3e d86c 61bf 360f fc3e
000003c0: d1d8 a13d ff6c 41bd 8e39 0f3f c62f 7f3e
000003d0: a38e 28bf 28e0 44bf 6781 d5be f43c 383e
000003e0: a260 e03e e05d 9cbe b3af 5a3e c9aa bb39
000003f0: 41a8 1a3e c38c f9be e38f b1be 5581 14be
-0.074845865 -0.16196363 0.44849154 -0.3189238 -0.25136158 0.67697155 0.087798536 -0.15058827
0.036053665 -0.4104138 -0.28308105 0.19166465 0.055070344 0.5739477 -0.11521974 0.33372304
-0.0044741635 -0.066879146 0.014756498 -0.31985107 0.26464063 0.086102195 0.13292702 -0.07899273
-0.5313623 -0.35037217 -0.26969865 -0.15851024 -0.06920837 0.22119355 0.16777271 1.393073
-0.0048181103 -0.31194586 -0.15007277 0.3963917 -0.15830092 -0.31606996 0.31468788 0.26457056
0.55277723 0.16793616 0.18661653 0.235477 -0.4236784 0.26223588 -0.3376226 -0.40467423
-0.104801886 0.4253443 0.32781854 -0.32618845 0.12422832 0.047747668 -0.39127246 -0.47264993
-0.17064872 0.22263134 0.68925595 0.5661302 0.11803184 -0.1378767 -0.16640836 0.0199952
-0.0901056 0.60574865 0.2841998 0.74033797 0.14356448 0.7834212 -1.0536499 -0.37491536
-0.42045864 0.1321795 0.11230618 0.41425022 -0.1261031 0.28094554 0.09453906 0.36281413
-0.43011424 -0.68868244 -0.10760105 0.6847233 0.08167474 -0.2547031 -0.057705928 0.47186005
-0.59656376 -0.0064573325 0.09658055 0.21828228 -0.1573604 -0.079073235 0.33792654 -0.17137371
0.25335807 0.12799142 0.1842333 -0.09251729 -0.07616188 -0.67568636 0.6016069 0.1135791
-0.46097454 0.550456 0.22632697 0.27263367 -0.6032055 -0.24805298 0.043478955 -0.017978992
-0.25265434 -0.06836465 -0.57658905 0.6512982 -0.1871547 0.13992596 0.10529237 -0.33949718
0.10433047 0.39037332 -0.14348403 0.7795706 -0.33174187 0.5084104 0.15031722 0.3282408
0.70463246 -0.2518221 0.39545813 0.67637175 -0.32534537 0.26354733 -0.14818943 -0.5456662
-0.4375995 0.030152693 0.12957142 0.3335188 -0.2733945 -0.063406266 -0.32189777 -0.60819745
0.6696801 0.025150307 0.08618236 0.2946329 -0.5020657 0.7697749 0.08051139 0.12008414
0.13987228 -0.54108196 0.15874887 0.1749497 -0.2419724 0.61346596 0.37959045 0.2898716
0.026637616 -0.11365839 0.09095833 0.5205898 0.75973904 0.3367823 0.15772153 0.078359716
-0.58298767 -0.58440125 -0.3044838 -0.1412188 0.11614356 -0.3225137 0.28998357 -0.22037001
0.06413487 -0.271322 -0.61641896 0.46627358 -0.039925173 -0.09282812 0.48198605 -0.09797575
-0.03157898 -0.33706868 0.4476906 0.2381359 0.022358779 0.7040233 0.09366127 -0.31569144
-0.6893605 -0.4725525 -0.027389422 -0.53189677 -0.17067547 -0.25378585 0.40551645 0.10110216
0.015952924 0.15587187 -0.15969123 -0.3399722 -0.10021991 0.18947303 -0.1635941 0.05880098
0.20840031 0.25592965 0.46999934 0.22602735 0.28588977 0.46390647 0.08341262 0.4071821
-0.18822607 -0.07497744 -0.03939468 0.76873815 -0.060521834 0.03809848 0.15628271 0.34208077
0.09897608 0.29925236 -0.02452985 -0.15860792 -0.5804932 0.010365499 0.32264107 -0.27456507
-0.09971866 0.16916998 0.2519961 0.0885839 -0.006244552 0.4023542 -0.8805671 0.49230355
0.079026826 -0.047223087 0.55947196 0.24920568 -0.65842646 -0.76904535 -0.4170029 0.17992002
0.43823725 -0.3054037 0.21356086 0.00035794664 0.15103246 -0.48740205 -0.3468009 -0.14502461

network_body._body_endoder.seq_layers.0.bias f4 [128]
00000000: 3694 58bd 8d1a b33c 4699 983c 2d6a f939
00000010: 51c4 aa3d 7b22 493c 11de a8b9 02a3 8abc
00000020: 7080 593b fbf9 71bc 9fbd 033d c8b8 c8bc
00000030: bbb0 f8bc 29ec 1bbd e18d 333d 8a57 883d
00000040: 796e 953c 29cf 393c 0c9b 173d 0509 11bc
00000050: 8886 c3bb 3d56 8c3c b967 de3c 584f 493d
00000060: 1864 c0bc 8fd8 faba d0e7 a0bb 92e7 21bc
00000070: daee 59ba 7ef5 18bc f7d3 dd3c 4546 21bd
00000080: ac04 ffbc 1f0c 343d b891 d23c 9128 f33a
00000090: 0ed9 a6bc 3fd1 1f3a 2ba5 0fbc 6414 543d
000000a0: 3507 ffbc 0c68 ca3b 92d4 883c e8ba ce3c
000000b0: d55f 90bc a6c9 273c ac86 acbc 089e 063b
000000c0: 296f d03c a89b 40bc 2d1d c13c c43f f13c
000000d0: 45ed 16bd 2513 df3a efc5 a3bc b04d 103d
000000e0: d1f2 03bb b03a 38bc 3f51 aa3d 1acf 39bb
000000f0: f441 e13c 3fa9 89bc d605 5d3b fc2f 613c
00000100: 7f09 15bd cd7d af3c 1dd9 363d 0513 00bd
00000110: 79e4 823a 64a6 c0bc c012 243d 3d2b d73d
00000120: 6403 b5bb 8d47 853c b133 0dbc 5ad4 223d
00000130: 923b 74bc a98e 17bc b206 05bd 0879 c93c
00000140: 9db8 923b 4ac9 f9bc 2aef d23c 1c94 45bc
00000150: 1da0 5cbc 255a 9f3c cdf7 9ebc 98fe 6ebc
00000160: 28a7 01b9 dd95 e13c 5b48 46bc f351 21bc
00000170: 7d14 b53c 70c0 6dbd 2d86 0d3d d197 f53b
00000180: 7a96 3cbd 86c0 06bc cc76 a9bc 88be 463b
00000190: c1fb 8b3c 2a88 163d a28a 94bc 3386 05bd
000001a0: 4485 a93c bdba 813b 754a 99bc 62da c03d
000001b0: 0121 373c 18f9 8dbc 30d8 f23b 7370 02bd
000001c0: f57f 513b 6b1b 09bc 3f20 26bc d883 c2bc
000001d0: a9ae b7bc 2351 c2bc 507b 9abc 7fd0 93bc
000001e0: f107 643d f8d2 30bb ec21 84bc 62c3 763d
000001f0: 58fb abbc ecc3 0d3c 25e4 25ba 0192 493c
-0.05287572 0.021863246 0.018627774 0.00047572088 0.08338226 0.012276287 -0.0003220891 -0.016923431
0.0033188127 -0.014769073 0.03216326 -0.024502173 -0.03035771 -0.038067017 0.04383648 0.06657322
0.018241154 0.011340895 0.0370131 -0.008852248 -0.005966965 0.017130965 0.027149068 0.049147934
-0.023485228 -0.0019138026 -0.0049104467 -0.009881871 -0.0008313485 -0.009335874 0.027078612 -0.039373655
-0.031130157 0.043956872 0.02570425 0.0018551518 -0.020367172 0.0006096549 -0.008767406 0.05177726
-0.031131366 0.006176954 0.016702924 0.025235608 -0.017623821 0.010240948 -0.02106031 0.0020540971
0.02544363 -0.011755861 0.023573482 0.029449351 -0.03684737 0.0017019255 -0.019991843 0.03523034
-0.0020133744 -0.011244461 0.08316278 -0.0028352202 0.02749727 -0.016804336 0.0033725402 0.0137443505
-0.03638601 0.021422291 0.04464065 -0.03126814 0.0009986303 -0.023516841 0.040056944 0.10506294
-0.005524086 0.01626947 -0.008618281 0.039753295 -0.014906781 -0.009250321 -0.03247709 0.024593845
0.004477574 -0.03049149 0.025748808 -0.012059238 -0.013465908 0.019452164 -0.01940527 -0.014587067
-0.00012364669 0.02753728 -0.012102212 -0.009846198 0.022104496 -0.05804485 0.034551788 0.0074949046
-0.046041943 -0.008224612 -0.02068653 0.0030325968 0.017087819 0.03675095 -0.018132512 -0.032598685
0.020693429 0.0039590285 -0.018712262 0.09416653 0.011177302 -0.017330691 0.0074110255 -0.03184552
0.0031967137 -0.008368353 -0.010139524 -0.023744509 -0.022422152 -0.02372033 -0.018857628 -0.018043755
0.055671636 -0.0026981216 -0.016129456 0.060244925 -0.020993873 0.008652668 -0.00063282467 0.012302876

network_body._body_endoder.seq_layers.2.weight f4 [128, 128]
00000000: 5b8b 9d3c 364d 253d 425a bcbc 00c4 003e
00000010: 32c7 5abd be05 8abd 1974 36bd e793 50be
00000020: 3fcc 94bc 24d3 e23c a491 59be 0f1b 89bd
00000030: 7156 05bd 8d8b 94bc df4a 0ebe 7b2f dc3d
00000040: a84f 8abe 9694 b2bd 0b92 42be 0ed1 4b3e
00000050: ab88 9a3d 7648 8b3c f17c a4bd bbf6 023e
00000060: 08ae 5f3d 0509 1f3e 4761 e7bd e358 153e
00000070: e711 9e3d dd21 473d d264 c83c 37c0 fa3d
00000080: bd8c 11bc bcaf dabd 480e d8bc 5cb0 813d
00000090: 63c6 ebbc c51a 60bd 23fc 1b3e be83 6d3c
000000a0: 105f a33c c00f a6bd fc47 ccbc f163 bcbd
000000b0: ea02 76bc 5418 903d cad9 183e 0354 203e
000000c0: b47c 7b3c 9b3e 32be 50a0 36be 29c4 2b3d
000000d0: 202f 8e3d c0e3 0cbd 1412 893d e0f4 a0bc
000000e0: b0c8 883d 8f7f ce3b a8da 2abd 48b7 283e
000000f0: b117 56bd 4f8c 323d 7c7f e3bd 9b07 adbd
00000100: 6de3 053e 2ebd 863d 2c07 833d cedb 9fbd
00000110: 689e 0a3e 04c7 00be 1d4c 7ebc 5287 083d
00000120: f118 d73c e563 9abc daca 2f3e 7987 a5bc
00000130: d043 283e b014 ecbd d0bf 3a3d 5811 34bd
00000140: 257c d83d 149f 343d e7f7 913e eab3 373d
00000150: 8a92 0b3e 5d69 39bc ce59 5ebd a851 d3bd
00000160: 6d58 babd 7c8e f9bd 79cc 83bb b0d0 3ebd
00000170: 2913 49be b111 6abd 7ba2 c03c 2172 fa3d
00000180: 89dd 26bc adb1 86bc b615 8b3c 3184 d33d
00000190: ecdc 613d ccd4 0dbd 15fa 14be 8f21 e73d
000001a0: 80f7 98ba a997 093e 10d0 063e 904f 05be
000001b0: 9428 483d 798c 6cbd e761 9cbd a8db 8dbd
000001c0: c9c7 bfbd d72e 623c 8577 4e3d 036a 8f3d
000001d0: 238b c83a b2f3 c33b f3d9 a33d 87c1 af3d
000001e0: 3bd6 48be bd98 013e 7f79 36bd 5438 9d3d
000001f0: 516c 503c 9a34 2bbe 87b1 d33d 3554 a3bd
00000200: 5d61 80bd b197 c43d 1500 1a3d 418b 66bd
00000210: 025b ae3c 0c63 bc3d 4010 82bd 804f 9fbd
00000220: 6e60 bd3d e391 ee3d 1387 1f3e 19a8 ab3d
00000230: dd30 75bd f01c 26bd 6425 333e 08b9 503d
00000240: 3162 20bb 360a 243e 4e41 e53c b06b bf3d
00000250: a140 8fbd 11fb ca3d 9678 1cbd 5912 4fbe
00000260: c10c 023e 423e 323c 08a8 323e 232b 1e3e
00000270: e19f 5ebd a43f 8f3d 2cd5 82bc bacc 7d3c
00000280: cd39 62bd 1219 3cbd bea9 43be ba5d dfbd
00000290: 0bed 60ba 36d3 26be 766d 29be 15d3 213d
000002a0: 463b 2fbe 40e8 f83b adbc 3a3c c571 833d
000002b0: 5338 bfbc 54d4 e2bd 432e 6a3d 3b80 41bc
000002c0: 26fb e73d ee53 453d 905a 46bd 4ed7 3c3d
000002d0: db1a 9abd e0f2 0dbe 22f9 603e 2a4b 653d
000002e0: 2b01 2b3d 4166 663c d8aa 903d 2b67 83bc
000002f0: af49 8ebd 9ade a8bd 0135 ea3d b8f3 67bd
00000300: d4bc babd e709 40be 9cce 803c d1b3 543d
00000310: f212 093b 2d08 d43d 183d 393d 75d6 cfbd
00000320: 408f adbd 5eea 82bd c34f 10be b4ba 783d
00000330: 21a9 68be 97a9 ea3d e6e0 593e d0a5 793d
00000340: 60ec 14bd 8013 2cbe dae5 cc3d bf0b f13d
00000350: cf8c f1bd c024 f6bb 9fa8 003d ecc3 6abd
00000360: d171 3d3d b22e a53d e9ae ae3d e85e 9ebc
00000370: 692b 2b3d 7cec de3c ba6a 2ebe 9fd5 96bc
00000380: d12e ffbd 4cd0 f93c f2e7 ce3c 70b7 4a3d
00000390: 45b1 a53b d405 323d 2d1b 313d 080d 883d
000003a0: b319 663d 27bd 843d c8f4 893d b5b3 1f3e
000003b0: 1acb 5dbc 16bb 183e ddfd 0abd 07de 25bc
000003c0: f757 823c 235a 27be 4971 f5bb 78a3 3c3d
000003d0: 06ae 8b3b dc65 9d3c 5e07 1eba b3c3 8bbd
000003e0: 16d2 903d ce33 d7ba b512 6c3e 81c3 c1bd
000003f0: bc42 143e 0de4 613e 87cd b0bd 4d52 03be
0.019231489 0.040356837 -0.022992257 0.12574768 -0.053412624 -0.067393765 -0.044544313 -0.2036892
-0.018163798 0.02768857 -0.21246964 -0.06694614 -0.03255314 -0.01813295 -0.13895749 0.10751244
-0.27013898 -0.08719747 -0.19001023 0.19903967 0.075455986 0.017002326 -0.08031643 0.12789433
0.05460933 0.15530784 -0.11297851 0.14584689 0.07718258 0.04861628 0.024462137 0.12243693
-0.008883652 -0.1067805 -0.026373997 0.06332466 -0.028781122 -0.05471303 0.15232901 0.014496742
0.01994279 -0.08108473 -0.024936669 -0.0919875 -0.015015343 0.0703589 0.1492683 0.15657048
0.015349556 -0.17406695 -0.17834592 0.04193512 0.06942582 -0.034396887 0.06692901 -0.019648015
0.06678903 0.0063018273 -0.041712433 0.16476166 -0.052268688 0.04359084 -0.111083 -0.08448716
0.13075037 0.06579052 0.06397852 -0.07805596 0.1353699 -0.12575918 -0.0155210765 0.033332177
0.02625701 -0.018846462 0.17167225 -0.0202062 0.16432118 -0.11527383 0.045593083 -0.043961853
0.10570554 0.04409702 0.28509447 0.044849314 0.13630119 -0.0113166245 -0.054284863 -0.10318309
-0.09098897 -0.1218538 -0.004022178 -0.04658574 -0.19636215 -0.057145778 0.023514977 0.122287996
-0.010184654 -0.016442144 0.016978126 0.10327948 0.05514233 -0.034626767 -0.14548524 0.11285698
-0.001167044 0.1343676 0.13165307 -0.13018632 0.048866823 -0.057751153 -0.07635861 -0.06926662
-0.09364278 0.013805113 0.05040695 0.07002642 0.0015300255 0.0059799785 0.08000555 0.08581834
-0.19612972 0.12655921 -0.04454946 0.07676759 0.012721137 -0.16719285 0.10336595 -0.079750456
-0.062685706 0.09599245 0.037597734 -0.056285147 0.02128363 0.09198579 -0.06350756 -0.07778835
0.09246908 0.116489194 0.1557887 0.083816715 -0.059861053 -0.04055494 0.17494732 0.05095771
-0.002447259 0.1601952 0.027985241 0.09346712 -0.06994749 0.09911168 -0.038200937 -0.20221843
0.12700178 0.010879101 0.17446911 0.15446143 -0.05435169 0.0699456 -0.015970789 0.015490705
-0.055230904 -0.045922346 -0.1910772 -0.10906549 -0.0008580244 -0.16291508 -0.16545662 0.039507944
-0.17112455 0.0075960457 0.011397523 0.06418184 -0.023342287 -0.110756546 0.057173025 -0.011810358
0.113272 0.048175745 -0.04842621 0.046103768 -0.075246535 -0.1386218 0.21970037 0.055979885
0.04174916 0.014062465 0.07063836 -0.016040405 -0.06947648 -0.08245583 0.11435891 -0.056628913
-0.09118047 -0.18753777 0.015723519 0.0519293 0.0020915833 0.10353122 0.04522428 -0.10148326
-0.084745884 -0.06392358 -0.14092927 0.06072493 -0.22720768 0.11458128 0.21277198 0.060949147
-0.036358237 -0.16804314 0.10004778 0.117698185 -0.11794435 -0.007511705 0.03141081 -0.057315752
0.046251122 0.08065547 0.08529455 -0.019332364 0.041789446 0.027212374 -0.170329 -0.01841241
-0.124601014 0.030494832 0.025257085 0.049491346 0.0050565326 0.04346259 0.043238807 0.066431105
0.056176852 0.064813904 0.067361414 0.15595897 -0.013537193 0.14915118 -0.03393351 -0.010123736
0.015911086 -0.16342978 -0.0074903113 0.046054333 0.0042626886 0.01921361 -0.00060283195 -0.06824436
0.07071321 -0.0016418637 0.23054011 -0.094611175 0.14478582 0.2205965 -0.08632951 -0.12824364

network_body._body_endoder.seq_layers.2.bias f4 [128]
00000000: d6a7 25bc 1191 ebba a3f4 c8bb 9f4a 0bbc
00000010: 3a48 c9bc 8b4f 743a af48 00bc 61fe c2bb
00000020: 55bb 86bc d958 afbb 21fc 1abb 9a34 22bb
00000030: b088 93bb ddcf 99bc 3da7 f23b a6ef 4c3c
00000040: 8934 fc3a 1173 81bc 5573 51bc 83dc 4a3c
00000050: 6b33 74bb e97f 32bc 5775 42bc 5d12 a3bc
00000060: 241b 9b3a 038d 74bc 36af 5c3c a720 92bc
00000070: 8741 37ba f42f 84bb 5669 bebc d36a 6dbb
00000080: 60d2 903b ca9d 8b3b 9b51 143b a191 96bc
00000090: 93b4 60bc c783 db3c 5479 62bc b1fd 16bc
000000a0: 666b d5bb a2d8 b23b 8d06 3bbc c9a3 063c
000000b0: d0ff dbbc a1cf 2cbc 7b84 7d3b 2509 c7bb
000000c0: 5d9d ac3c 11ea 56bb c0b6 f23b 275c 203b
000000d0: 3261 9fbb 0637 9dbc 6afc 103c c8ff 763b
000000e0: 264b 573c 9ae6 c0bb 2f94 84bc 2d48 eaba
000000f0: 4737 c739 3684 94bb b11a 9ebc 5d0b 88bb
00000100: 684d 81bb bfb9 d4bb 3efe 2dba 6fb6 9bbc
00000110: a0e7 47bc ebcb 82bb 16f8 bfbc 4c3c 1abb
00000120: 804a dcba 6e6e e43b a223 0d39 0153 28bc
00000130: 985d 413c 8641 d9bc 052b c7ba bf24 81bc
00000140: da88 8d3c 154d fcbc 493d f7bb b3b0 b5bc
00000150: 1b17 71bc a286 9b3c 12b2 aebb 8d17 f53b
00000160: 7108 4a3c e0ff 283c 8232 56bc a6e2 82bc
00000170: 9cb6 9abb aa1c c6bb 3fc1 89bc b302 2c3b
00000180: 273c 63bc 2b19 a7bc 55d3 87bc 0bcb 403b
00000190: 3ed6 6cbb 0790 93bc 4aa5 55bc 8cc4 dd3b
000001a0: d5b0 c1bc 4ff3 3fbc 4f3d aaba ee22 c9b9
000001b0: c8b6 eabb 5dc2 21bb 0eeb 9fbb 3ebe 2dbc
000001c0: f495 2dbb 10b9 6cbb 4daa 26bc 11f1 beba
000001d0: 2184 703c afa3 19bb f9f7 01bd b0a2 e0ba
000001e0: b299 8ebc 1756 233b 0cbc 883a 2cdd febc
000001f0: 716b c4bc 891c a5bc d1da 9abb 9592 813c
-0.010110816 -0.001797231 -0.0061326786 -0.008501678 -0.024570573 0.0009319714 -0.007829829 -0.0059507345
-0.016446749 -0.0053511676 -0.0023648816 -0.0024750591 -0.0045023784 -0.018775875 0.0074051903 0.0125083085
0.0019241731 -0.015801938 -0.012783845 0.012381676 -0.0037262093 -0.010894754 -0.011868796 -0.019906217
0.001183365 -0.014926198 0.013469508 -0.017837835 -0.00069906603 -0.004034037 -0.023243587 -0.0036227002
0.00441961 0.0042607533 0.0022631648 -0.018379988 -0.013714927 0.026796235 -0.013822872 -0.009215758
-0.006513047 0.0054579535 -0.011415136 0.00821776 -0.02685538 -0.010547549 0.00386837 -0.006074088
0.02107113 -0.0032793323 0.0074070394 0.002446899 -0.0048638815 -0.019191276 0.008849243 0.0037689079
0.013140475 -0.005886865 -0.01618394 -0.0017874293 0.00037997423 -0.0045323623 -0.019299837 -0.0041517452
-0.003945995 -0.006491869 -0.00066373113 -0.01900789 -0.01220122 -0.003991594 -0.023433726 -0.0023534475
-0.0016806871 0.006971172 0.00013460082 -0.010273696 0.0118021 -0.026520502 -0.0015195316 -0.015764592
0.01727717 -0.030798474 -0.0075451476 -0.022178983 -0.014714981 0.018985096 -0.005331286 0.007479614
0.012331114 0.010314912 -0.013073565 -0.015977215 -0.0047214758 -0.0060458975 -0.01681578 0.0026246726
-0.013869322 -0.020397743 -0.016580263 0.0029417898 -0.003613844 -0.018013014 -0.013039896 0.006767815
-0.02364389 -0.011715724 -0.0012988242 -0.00038363732 -0.0071629025 -0.00246825 -0.0048803156 -0.010604439
-0.0026487084 -0.0036121048 -0.010172439 -0.0014567693 0.0146799395 -0.002344351 -0.031730626 -0.0017138328
-0.017407272 0.002492314 0.0010432019 -0.031111322 -0.023977013 -0.020155208 -0.004725792 0.015816966

action_model._discrete_distribution.branches.0.weight f4 [3, 128]
00000000: c22f 15bd 179c 9cbc 13c9 113d 8f17 16bc
00000010: 9be6 a63b 5115 49bb 4a25 063d 0df7 0abc
00000020: d1f0 74ba ef5e f4bb 690a bbbb 08c6 433d
00000030: 2ce2 f13b ca6a edbb 21d9 173d 6b60 92bd
00000040: 3251 563c df04 81bc 1fd6 153c 72e9 2dbd
00000050: d347 bd3a 3e31 dcbc 4275 03bd 8a3a aebc
00000060: 644d 303d b49d 023c 1817 b73d c792 84bc
00000070: 6132 d0bc 38f6 313c 4489 a839 adf0 72bd
00000080: ae12 993d 4403 00bd 6eae 223d 3bf5 25bb
00000090: 0476 c53b df23 cebd 5bfc f53b c23f 2dbd
000000a0: e648 0d3d b5f3 7bbd 9031 153c 16fb 47bd
000000b0: 4eed a6bc bdf3 0cbd 0d8a cd3c 21c5 deba
000000c0: a3e5 51bd b693 b23a d28e 9abd 384b 3fbd
000000d0: a386 573b 73f7 aabc d0fa 9cbd fda7 873d
000000e0: 72ea 2e3c 8c6b d3bc 4ac8 b1bb 2ce5 8bbc
000000f0: 9160 c13c e6d9 693c 9e51 63bc 77bc 8a3d
00000100: bab3 29bd 2514 97bc 6567 293c b219 e6bb
00000110: 3519 9d3b 1df9 643b 9257 773a e0f2 753d
00000120: 6170 35bd 6d13 2d3d 3172 7f3d 3142 31ba
00000130: 7322 1c3d 681e e4bb 20cd 7dbd 9f25 f1bc
00000140: 167e be3d 6ef5 583b fd44 213c 3764 533c
00000150: 217f 3dbb a1dd d43d be04 083d 371d 013c
00000160: d17b 673d 61f8 953d 7df3 04bd 4274 e0bc
00000170: 4870 243c 01ff 44bc 7cd7 48bb dc38 6cbd
00000180: c56f b93c 3117 48bc b957 60b9 60b3 603d
00000190: d9ea 8c3a 1423 483c c734 cbba 0be4 99bd
000001a0: 6eee fcbb 2627 3b3b ed76 1d3d 3ec5 aebd
000001b0: 7e42 5bbb 1e05 febc f9ae e1bc 2b8e a63c
000001c0: 2b2c 913c 0bc0 a63b 2fdb 02bc 6935 8fbd
000001d0: 2045 2a3d 99d5 8bbc 99c1 143c 8b30 0ebd
000001e0: ea94 e9ba b5d4 49bd 29b1 a0bd d6b9 523a
000001f0: cea8 82ba d6d9 9bbb 279c ed3c 294a 1b3d
00000200: 890f 02bc f015 863c 0a07 b5bb 0d96 183c
00000210: fa7f 923b 01a8 3c3b 71ae 223c d061 be3b
00000220: e63b b2bc 2e54 573c 2f43 823b 210f f83c
00000230: af92 ccbb 7f7f f7bb 3786 8b3c 2849 643c
00000240: a8df 3f3b 6742 d33c acbc 213c d150 be3c
00000250: 2872 523c db05 253c c794 bdbb 4542 28bb
00000260: c85d b73b 7522 c7bc 6ce3 7fbc 43e2 a43b
00000270: 9d1f 82ba b9b8 0cbc 7243 0f3b f196 abba
00000280: b9a6 01bc 6855 f43b 93c0 d3bc c99f 1f3c
00000290: 0520 0abc 8377 353b c1b7 59bb bb95 3ebc
000002a0: 64f8 cd3a f9b5 623c 9fb3 6f3c 4d1b e9bb
000002b0: ac49 413b 4d7e 093b 8fbd 0f3c 5525 6dbc
000002c0: cea8 44bb ca0c ddbb 3bc2 58bc 6185 623c
000002d0: e2bc 84bc 0793 91bb 8cec 513c 2733 44bc
000002e0: 1a96 233d 73e8 2fbb c24b ea3b 0414 973b
000002f0: 9b6f f23c a847 493c 13d3 ef3a ccf9 18bc
00000300: 4718 8a3b 081e c33c 22bd 163c d9ad 3abc
00000310: c923 c83b e060 edbb 6c6b 37bb 6d8a d43c
00000320: c9a2 61bc 93a7 843c 36b6 183c fca5 ee3b
00000330: db6a fb3c 7f72 9fbb f15d fabb c63b 02bc
00000340: cce9 d6bb 6682 783b 2651 4abb 2a9c d63b
00000350: 51eb 453c 9450 75bb d591 563c bd31 7e3c
00000360: 1506 d33b 2c94 4e3c 683f 2dba 8ae7 33bb
00000370: f38a 26bb a9dc 1e3c 7394 c6bb 52ea 82bb
00000380: 5554 be3b 2f8c 8abb e594 20bb 4c1a ca3b
00000390: ce10 14ba 372d 7cbb 9a2b 1b3b b20f 1dbb
000003a0: e5fc 5eba 6383 843c 727c 65bb 230b a4bb
000003b0: c49a 99bc b7bb 19bc 169d 333b 52fa 84bc
000003c0: cc4c aa3c 1560 b63c 260a 523c fcff 3ebc
000003d0: 597b bb3b e376 cabc bcd3 b53b 5de3 84b8
000003e0: c969 82bb efd8 e93c 30b8 00bc 7583 71ba
000003f0: a17b a7bb 1b13 10bc 2d57 d73b 576f f43c
-0.0364225 -0.019117398 0.03559215 -0.00916089 0.0050934083 -0.0030682872 0.032750405 -0.008481753
-0.0009343746 -0.007457606 -0.005708028 0.04779628 0.007381698 -0.0072453963 0.037072305 -0.071472965
0.013080882 -0.015749393 0.009145289 -0.04245896 0.0014440961 -0.02687895 -0.032094248 -0.021268148
0.043042555 0.00797217 0.08939952 -0.01618327 -0.025414648 0.010861926 0.00032145728 -0.059311558
0.07474266 -0.031253114 0.03971713 -0.002532317 0.0060260314 -0.100654356 0.0075068898 -0.042297132
0.03449335 -0.061511714 0.009106055 -0.04882344 -0.020376828 -0.034412134 0.025090242 -0.0016996005
-0.05124439 0.0013624344 -0.07546772 -0.046702594 0.0032886646 -0.020869946 -0.07665026 0.06623838
0.010676013 -0.025808118 -0.0054254876 -0.017077051 0.023605617 0.014273142 -0.0138744395 0.06774228
-0.041431166 -0.018442223 0.010339593 -0.007022106 0.0047942647 0.0034938522 0.0009435351 0.060046077
-0.044296626 0.042254854 0.06236476 -0.00067618774 0.03811879 -0.0069616325 -0.0619632 -0.029436884
0.09301393 0.0033105272 0.009843108 0.012902311 -0.0028914886 0.10393835 0.033207648 0.0078805005
0.056514565 0.07322765 -0.03245877 -0.027399186 0.010036536 -0.012023688 -0.0030646017 -0.057671413
0.022636304 -0.0122125605 -0.00021394984 0.054858565 0.0010751142 0.0122153945 -0.00155034 -0.07514199
-0.0077188527 0.002855727 0.038443495 -0.08533715 -0.003345638 -0.0310083 -0.027549254 0.020331463
0.017721256 0.0050888113 -0.007986828 -0.06992609 0.04156983 -0.017069625 0.00907936 -0.034714263
-0.0017820869 -0.04927512 -0.078462906 0.0008038556 -0.0009968521 -0.0047561927 0.029005123 0.03791252
-0.007938274 0.016367882 -0.0055245208 0.009313119 0.0044708224 0.0028786662 0.009929285 0.00581
-0.021757077 0.013142629 0.003975294 0.030280652 -0.006243072 -0.0075530405 0.017031772 0.013933457
0.0029277597 0.025788499 0.009871643 0.023231896 0.0128446 0.010072197 -0.005785558 -0.0025674265
0.0055958964 -0.024308423 -0.015618186 0.0050318553 -0.0009927634 -0.008588963 0.002186027 -0.0013091249
-0.007913285 0.0074564703 -0.025848662 0.009742686 -0.008430486 0.0027689643 -0.0033221098 -0.011632378
0.0015714285 0.013837331 0.014630227 -0.00711385 0.0029493375 0.0020979822 0.008773222 -0.014474233
-0.0030007842 -0.0067459093 -0.013229902 0.013825745 -0.016203348 -0.004442576 0.012812745 -0.011975086
0.03993807 -0.0026841431 0.0071501443 0.0046105403 0.029594233 0.012285151 0.0018297158 -0.0093369
0.00421432 0.023818031 0.009200366 -0.011393988 0.0061077815 -0.0072442144 -0.0027987612 0.025944913
-0.013771721 0.016193187 0.009320786 0.0072829705 0.030690601 -0.004865944 -0.007640593 -0.007948821
-0.0065586325 0.003791952 -0.0030871122 0.006549378 0.01208003 -0.0037432062 0.0130962925 0.015514788
0.006439934 0.012608569 -0.00066088745 -0.002745124 -0.002541241 0.009696164 -0.006060177 -0.0039952183
0.005808393 -0.004228137 -0.002450281 0.0061676856 -0.0005648256 -0.0038479099 0.0023677112 -0.0023965654
-0.0008506312 0.016175931 -0.0035016802 -0.0050062104 -0.018750556 -0.009383134 0.0027406863 -0.016232643
0.020788573 0.022262612 0.012819802 -0.011657711 0.0057214913 -0.024714893 0.0055489223 -6.3366e-05
-0.0039798957 0.028545825 -0.007856414 -0.0009213009 -0.0051111733 -0.008793618 0.0065716715 0.029838247

action_model._discrete_distribution.branches.0.bias f4 [3]
00000000: 272c fdb9 5d94 1cbc ef2a 353c
-0.00048288816 -0.009556857 0.011057599
